PyTorch/models/model_iter_39000.pth (torch, 211250 bytes, 19 tensors)

conv1.weight f4 [64, 6, 1]
0.036316272 -0.23519187 0.3469588 -0.34562087 0.18762718 -0.12271303 0.29867524 -0.2488502
-0.34237668 -0.19019696 -0.08319 -0.30665177 0.15917477 0.18951966 -0.31301236 0.05477391
-0.05451105 -0.3779122 0.016260674 -0.012884565 0.03638685 -0.10387664 -0.05785544 0.008079246
-0.04105033 -0.3147716 0.12094293 -0.36610675 -0.15634015 0.3486135 -0.036182627 0.24824965
-0.069531806 0.28003016 -0.077233665 0.13354774 0.012333907 0.27783084 -0.2545231 0.06842381
0.00034935158 0.4292288 0.04032823 -0.058609605 0.34433168 0.0090267435 0.17369962 -0.15095387
-0.05533508 0.047461435 0.093546465 0.03484385 -0.08838531 -0.22696857 -0.2814704 0.13700156
0.36078116 0.10028092 0.16273952 -0.15325542 -0.23032166 -0.25237185 0.18768981 -0.24680099
-0.08454462 -0.17661414 0.20860879 0.3516729 0.04984263 0.24117032 0.38705337 0.06281933
-0.17961141 0.34394714 -0.034203414 0.28059962 0.016546994 0.34102923 -0.026095454 0.14399584
-0.41224197 -0.4174911 -0.09979997 0.32016525 0.33812842 -0.23705272 0.3718336 0.12912093
-0.34110993 0.2728648 -0.21489374 0.125763 -0.19184005 -0.09211409 -0.10858544 -0.16949245
0.120332904 -0.22561191 -0.23490895 0.08857561 -0.10533808 -0.046113793 0.06416286 -0.256845
0.3621468 -0.028095264 -0.0769444 0.13762933 -0.3482843 -0.12504232 -0.12678422 -0.38782194
-0.10191501 0.37531608 -0.33060127 -0.37655038 -0.17736207 0.02715099 -0.0645262 0.12501183
-0.12528543 0.33561346 -0.076576464 -0.18986528 0.24822222 0.04930493 0.20465048 0.39113408
0.23477603 0.10558859 -0.07098196 0.108276516 -0.32526582 0.07578508 -0.10956822 -0.22264613
0.073732026 -0.41251758 -0.1657584 0.32308188 -0.0151766185 -0.34171894 -0.06615891 0.056447532
-0.32951897 -0.19386087 -0.4521028 -0.3102011 -0.026811158 -0.13834178 0.32532385 0.057408184
0.13786043 0.2584111 -0.042156022 0.1281734 -0.15323909 0.28083572 0.0710174 -0.21636863
0.039486594 0.040896233 -0.072728544 0.14442404 -0.3080308 -0.13075195 0.23452383 0.09700842
0.15603112 0.003197224 0.016202467 -0.043288257 0.12954913 -0.022761116 0.009532348 -0.0050984705
0.013876969 0.044937003 -0.111465275 -0.08097011 -0.1396057 0.39399472 0.39943394 -0.22465879
0.0019279959 -0.30506983 -0.18377404 -0.39235362 -0.26808873 0.18132918 -0.016939498 0.0038350492
-0.01850839 -0.047220565 -0.1771626 0.42044282 -0.074455954 -0.32116044 -0.36383685 -0.32462627
-0.27139294 -0.23099297 0.2689849 0.29571536 0.35721892 -0.16594256 0.41520342 0.14120945
-0.046976823 0.10565435 -0.302987 0.39166993 0.21323597 0.29653588 -0.059652623 0.10743098
-0.3356549 0.21152458 0.2694693 -0.14530092 0.30400687 -0.25050828 0.13910788 0.20833041
-0.08218163 0.45752656 -0.08503208 -0.04724894 -0.15101595 -0.019873891 0.112594284 -0.49161315
0.044468462 -0.20851053 0.27744588 0.19837916 -0.059018623 0.2508247 -0.09442199 0.20325229
-0.1426608 -0.13564783 -0.40924606 -0.073221244 -0.35664648 0.12131921 -0.12285418 -0.38825113
0.03688713 -0.40966418 -0.08191061 -0.008740971 -0.2155347 0.016047284 0.10534814 -0.010548096
00000000: 5fc0 143d 23d6 70be 95a4 b13e 38f5 b0be
00000010: 5721 403e f850 fbbd f6eb 983e 96d2 7ebe
00000020: ff4b afbe fec2 42be 855f aabd 7601 9dbe
00000030: b6fe 223e 7111 423e 2843 a0be 9c5a 603d
00000040: fb46 5fbd b57d c1be 1b35 853c c819 53bc
00000050: 610a 153d 47bd d4bd d3f9 6cbd d05e 043c
00000060: 6424 28bd be29 a1be edb0 f73d 5872 bbbe
00000070: a217 20be 787d b23e 3c34 14bd 2835 7e3e
00000080: b166 8ebd 1d60 8f3e af2c 9ebd bdc0 083e
00000090: 2814 4a3c d83f 8e3e da50 82be c821 8c3d
000000a0: 2d29 b739 e1c3 db3e 372f 253d a010 70bd
000000b0: 3e4c b03e e8e4 133c 50de 313e a793 1abe
000000c0: 09a7 62bd ec66 423d 4a95 bf3d 6db8 0e3d
000000d0: 5b03 b5bd 736a 68be e31c 90be 234a 0c3e
000000e0: 4fb8 b83e 1560 cd3d 30a5 263e fdee 1cbe
000000f0: 71d9 6bbe e236 81be c231 403e 66b9 7cbe
00000100: bb25 adbd 56da 34be 8b9d 553e 780e b43e
00000110: c927 4c3d 5af5 763e dc2b c63e 6ca7 803d
00000120: 0eec 37be d719 b03e e118 0cbd c1aa 8f3e
00000130: 908d 873c 629b ae3e 22c6 d5bc a573 133e
00000140: 6111 d3be 65c1 d5be ed63 ccbd b3ec a33e
00000150: 2b1f ad3e f3bd 72be f960 be3e 4738 043e
00000160: f6a5 aebe efb4 8b3e 1b0d 5cbe 04c8 003e
00000170: b871 44be 50a6 bcbd 0b62 debd 6e8f 2dbe
00000180: 1971 f63d cf06 67be f98b 70be 2167 b53d
00000190: 7ebb d7bd d1e1 3cbd d167 833d 3081 83be
000001a0: 4e6b b93e 0a28 e6bc 0795 9dbd b4ee 0c3e
000001b0: 5252 b2be 180b 00be b9d3 01be 9990 c6be
000001c0: d1b8 d0bd 6e29 c03e 9244 a9be 36cb c0be
000001d0: 679e 35be c16b de3c 5026 84bd 1a03 003e
000001e0: d34a 00be 87d5 ab3e 1fd4 9cbd 0b6c 42be
000001f0: f72d 7e3e f7f3 493d e58f 513e ba42 c83e
00000200: 2169 703e d53e d83d fd5e 91bd 14c0 dd3d
00000210: 3e89 a6be 3535 9b3d 4e65 e0bd 59fd 63be
00000220: d100 973d 8135 d3be 92bc 29be fd6a a53e
00000230: 5aa7 78bc c9f5 aebe 537e 87bd 8735 673d
00000240: b6b6 a8be 7783 46be 057a e7be aed2 9ebe
00000250: 13a3 dbbc 78a9 0dbe d990 a63e d824 6b3d
00000260: 492b 0d3e 764e 843e cbab 2cbd e33f 033e
00000270: b5ea 1cbe b3c9 8f3e 9271 913d bd8f 5dbe
00000280: b2bc 213d cf82 273d b4f2 94bd e5e3 133e
00000290: 37b6 9dbe d7e3 05be 0427 703e 5aac c63d
000002a0: 9fc6 1f3e 8588 513b 09bb 843c 074f 31bd
000002b0: 87a8 043e 8575 babc 912d 1c3c 1211 a7bb
000002c0: 3a5c 633c dd0f 383d e847 e4bd a8d3 a5bd
000002d0: ccf4 0ebe adb9 c93e 9b82 cc3e f40c 66be
000002e0: cfb4 fc3a 1d32 9cbe 432f 3cbe 93e2 c8be
000002f0: ed42 89be 5bae 393e b4c4 8abc 7355 7b3b
00000300: e89e 97bc 5a6a 41bd 1d6a 35be 4844 d73e
00000310: 5d7c 98bd 246f a4be d348 babe 6a35 a6be
00000320: 04f4 8abe 6c89 6cbe 64b8 893e 0168 973e
00000330: 66e5 b63e d9ec 29be 8b95 d43e 3699 103e
00000340: c56a 40bd 4f61 d83d 1d21 9bbe f688 c83e
00000350: 885a 5a3e 8dd3 973e 4f56 74bd c604 dc3d
00000360: f6da abbe e699 583e e1f7 893e c4c9 14be
00000370: caa6 9b3e 9f42 80be 4c72 0e3e 9154 553e
00000380: d84e a8bd ec40 ea3e 4d25 aebd 1b88 41bd
00000390: eda3 1abe 92ce a2bc d597 e63d b8b4 fbbe
000003a0: 9024 363d c983 55be 630d 8e3e e823 4b3e
000003b0: 83bd 71bd 186c 803e 5160 c1bd 5e21 503e
000003c0: ac15 12be 44e7 0abe b388 d1be 05f5 95bd
000003d0: 5e9a b6be 3576 f83d f99a fbbd dac8 c6be
000003e0: f616 173d 81bf d1be c0c0 a7bd 4a36 0fbc
000003f0: 21b5 5cbe 9875 833c c4c0 d73d ecd1 2cbc

conv1.bias f4 [64]
0.28517425 0.040620647 0.074731916 -0.10427004 0.38313204 0.356779 -0.015026978 -0.0032003913
0.14564414 0.35045227 0.04392187 0.040962957 -0.099685624 0.02721913 0.3566508 -0.20410606
-0.03881041 0.11527873 0.19312525 -0.3146318 0.2874385 -0.28750274 0.32457104 -0.027139133
-0.041252043 -0.3602083 0.25852463 0.35578763 0.14364001 -0.02896423 -0.035685442 -0.33848956
-0.02482557 0.38141295 0.11491253 0.23707163 0.05081129 0.030979978 0.25309333 0.3681802
0.40063554 0.15153725 -0.010422018 0.13973384 -0.017453898 -0.1315901 0.09323854 -0.16909294
0.09125448 -0.09977246 -0.06839912 0.24740498 -0.123287 0.35223696 -0.37882286 -0.06626503
0.004831997 0.35158053 -0.09044615 -0.08979806 -0.083105855 0.27430812 -0.21600695 -0.017757542
00000000: 5c02 923e d661 263d 0c0d 993d 888b d5bd
00000010: e229 c43e bdab b63e b733 76bc a8bd 51bb
00000020: bd23 153e 7b6e b33e 6be7 333d c6c8 273d
00000030: fa27 ccbd a7fa de3c ef9a b63e 2e01 51be
00000040: aaf7 1ebd 4117 ec3d a0c2 453e 6b17 a1be
00000050: 242b 933e 8f33 93be 2d2e a63e e352 debc
00000060: e7f7 28bd 396d b8be 575d 843e cc29 b63e
00000070: 5e16 133e 6546 edbc e62a 12bd 814e adbe
00000080: fe5e cbbc 8f48 c33e 4357 eb3d e8c2 723e
00000090: 801f 503d b9c9 fd3c 7395 813e 1d82 bc3e
000000a0: 1a20 cd3e 952c 1b3e 1dc1 2abc 6316 0f3e
000000b0: 7afb 8ebc 8ebf 06be d9f3 be3d b326 2dbe
000000c0: a1e3 ba3d 8155 ccbd d614 8cbd bb57 7d3e
000000d0: e57d fcbd 6758 b43e 12f5 c1be f6b5 87bd
000000e0: bb55 9e3b 5d02 b43e d53b b9bd 0ce8 b7bd
000000f0: 6733 aabd 1d72 8c3e ed30 5dbe 4478 91bc

conv2.weight f4 [128, 64, 1]
-0.06751043 0.060501188 -0.01653834 -0.026846915 -0.033045918 0.08571736 -0.061046645 0.056830592
0.0071860054 -0.08137515 -0.099797666 -0.04904691 0.030700907 0.09801462 0.103709005 0.02510276
0.0799848 0.049276214 -0.023165992 -0.029252801 0.06552259 -0.13635336 -0.022222105 -0.08350402
-0.06065435 0.030725589 -0.08728685 -0.10887336 0.04771021 -0.0094995 -0.09832233 -0.14114664
0.10092008 0.0019526014 -0.07662599 -0.107805245 0.0035845144 0.055287104 -0.039763365 0.078183785
0.060699105 0.033009153 -0.27479553 0.122372076 0.010345458 -0.06907317 0.10670916 0.006291981
-0.03717699 0.0038809502 -0.03977666 -0.049434345 -0.09874193 -0.12331898 -0.015386176 -0.016289484
-0.13133653 0.12556827 0.01537939 -0.068537615 -0.025867023 -0.047193374 0.035952676 0.084181756
0.013951114 -0.07623745 -0.08712419 0.02554978 -0.031171005 0.065296054 0.020167803 -0.05326014
-0.095661186 -0.120723255 -0.033746827 -0.007929556 0.046953745 0.086924 0.0298636 0.0042448062
-0.040920366 -0.05680681 0.087443136 -0.068387456 0.02194075 0.07168174 -0.11389383 0.024601234
0.036815636 0.058283407 0.10681851 -0.094838105 0.09949864 -0.0010342273 -0.035855174 0.01867904
0.048522457 0.06090863 0.012584703 0.026851976 0.023930922 -0.06985305 -0.0032721588 0.042317726
0.017870076 -0.011846983 -0.001103344 -0.072624005 -0.0049060136 0.084261745 -0.03062018 -0.051005736
0.011124629 0.0015226929 0.08939027 -0.07600861 -0.06971297 -0.025217324 0.07050218 -0.07096959
0.0012854242 -0.05358579 -0.10006725 -0.05590562 -0.020701991 0.12154057 -0.01920333 -0.0030913958
0.0017746111 -0.021216994 -0.013574831 -0.020062262 -0.0239856 0.010125955 -0.021778537 0.015284922
-0.016763145 0.0094364835 -0.026625102 0.0036844066 0.027128033 -0.006905109 -0.00997424 -0.017515564
-0.014829772 -0.02319065 0.0033810423 0.010088133 0.010595378 -0.007388992 0.013978289 -0.014283277
0.02744627 -0.021235665 -0.027249753 -0.0022108734 -0.02114863 -0.018325912 -0.022371192 -0.0038695866
-0.0011664111 -0.0035139953 0.011696246 0.0009738452 -0.015752312 0.0056387666 0.008786119 -0.0028791586
-0.020191416 -0.02276564 -0.00081198086 0.003549654 -0.02696098 0.013717969 -0.0061997753 -0.025872827
0.0077826325 -0.008632959 -0.0066579934 -0.0037550074 -0.024147823 -0.009623768 -0.0018088979 0.019490456
0.016031733 -0.0034394914 -0.011011319 0.0056639393 -0.010768672 -0.017991723 0.017845593 0.007073707
0.043717954 -0.020632697 0.041049045 -0.020022416 -0.06489569 -0.087229766 0.10403735 0.09569797
0.05542793 0.07095828 -0.036273364 -0.019206684 -0.114493124 0.029478867 0.1032115 -0.027480248
0.035420064 -0.018423373 0.0022645642 0.05795645 0.10609938 -0.13136561 -0.046162665 0.13192692
0.039290067 0.021806166 0.070016734 -0.10234506 0.12463097 0.02306468 0.029664809 0.0066543035
0.15630887 -0.010352479 -0.109468 0.12100923 0.08150896 -0.02561726 -0.008958218 -0.050228134
-0.03144216 -0.070073016 0.0358652 0.07512228 -0.0010907634 -0.04962451 -0.053422347 -0.06427673
0.084844254 0.005287948 -0.03181619 -0.052862514 -0.006758666 -0.00271234 0.041811727 0.10769932
-0.05963729 -0.059951756 -0.018754678 -0.03900101 -0.011726375 0.078171164 0.10848992 0.005039037
00000000: e942 8abd 18d0 773d 6a7b 87bc 10ee dbbc
00000010: 285b 07bd 958c af3d 0c0c 7abd 32c7 683d
00000020: 9578 eb3b 04a8 a6bd b862 ccbd 6ae5 48bd
00000030: 7880 fb3c e4bb c83d 6365 d43d 4ea4 cd3c
00000040: 12cf a33d dbd5 493d 9bc6 bdbc 92a3 efbc
00000050: b530 863d 37a0 0bbe 220b b6bc 2804 abbd
00000060: b270 78bd 3bb4 fb3c 73c3 b2bd fff8 debd
00000070: c86b 433d caa3 1bbc 385d c9bd bf88 10be
00000080: 30af ce3d 6eee ff3a 16ee 9cbd ffc8 dcbd
00000090: 2cea 6a3b bb74 623d e9de 22bd d21e a03d
000000a0: a09f 783d 9b34 073d 00b2 8cbe 369e fa3d
000000b0: ff7f 293c 3c76 8dbd 558a da3d f62c ce3b
000000c0: e646 18bd 8a57 7e3b daec 22bd ab7b 4abd
000000d0: 3639 cabd a98e fcbd 4d16 7cbc 8671 85bc
000000e0: 157d 06be f894 003e d6f9 7b3c 735d 8cbd
000000f0: 14e7 d3bc d74d 41bd 1d43 133d 7c67 ac3d
00000100: 3793 643c 6122 9cbd 2b6e b2bd c64d d13c
00000110: 565a ffbc f0b9 853d f336 a53c 4e27 5abd
00000120: 03ea c3bd c13d f7bd 1d3a 0abd f8ea 01bc
00000130: 9252 403d 3605 b23d 82a4 f43c 0418 8b3b
00000140: 1d9c 27bd 42ae 68bd 6315 b33d b90e 8cbd
00000150: 16bd b33c e0cd 923d 2b41 e9bd 8788 c93c
00000160: fecb 163d 95ba 6e3d aac3 da3d 7b3a c2bd
00000170: f1c5 cb3d e98e 87ba e0dc 12bd c904 993c
00000180: 7cbf 463d 547b 793d 1230 4e3c adf8 db3c
00000190: c80a c43c 1e0f 8fbd b771 56bb 5a55 2d3d
000001a0: 4464 923c d919 42bc 159e 90ba e5bb 94bd
000001b0: a0c2 a0bb 6c91 ac3d 2cd7 fabc 64eb 50bd
000001c0: 1344 363c 1895 c73a 3f12 b73d 67aa 9bbd
000001d0: acc5 8ebd 9094 cebc 7263 903d 8158 91bd
000001e0: ae7b a83a c67c 5bbd 0ff0 ccbd 4bfd 64bd
000001f0: 3997 a9bc 43ea f83d 4d50 9dbc 0499 4abb
00000200: 119a e83a 43cf adbc f868 5ebc 9d59 a4bc
00000210: 737d c4bc 55e7 253c e768 b2bc 9c6d 7a3c
00000220: dd52 89bc 7b9b 1a3c e31c dabc 1676 713b
00000230: 9c3b de3c 4144 e2bb ff6a 23bc cd7c 8fbc
00000240: 92f8 72bc 51fa bdbc 7a94 5d3b b248 253c
00000250: 3c98 2d3c 5b1f f2bb 3205 653c 6804 6abc
00000260: 00d7 e03c 6bf6 adbc e03a dfbc 4de4 10bb
00000270: e43f adbc 3920 96bc ca43 b7bc e498 7dbb
00000280: 43e2 98ba 0f4b 66bb 9da1 3f3c a549 7f3a
00000290: fe0a 81bc 67c5 b83b a7f3 0f3c 44b0 3cbb
000002a0: 7868 a5bc 027f babc 1ddb 54ba 50a1 683b
000002b0: 46dd dcbc 55c1 603c 7c27 cbbb 40f3 d3bc
000002c0: 7405 ff3b 4171 0dbc 4c2b dabb 9216 76bb
000002d0: a8d1 c5bc 02ad 1dbc 8b18 edba 73aa 9f3c
000002e0: fb54 833c 1769 61bb d268 34bc 9198 b93b
000002f0: 166f 30bc 6163 93bc ec30 923c 8eca e73b
00000300: 9911 333d e705 a9bc 0b23 283d 0d06 a4bc
00000310: 08e8 84bd 85a5 b2bd 8911 d53d 4cfd c33d
00000320: 6608 633d 9352 913d 6193 14bd 5657 9dbc
00000330: 5f7b eabd aa7d f13c 8d60 d33d 421e e1bc
00000340: a114 113d 9dec 96bc 1569 143b be63 6d3d
00000350: a24a d93d b584 06be 1015 3dbd da17 073e
00000360: 9fee 203d d8a2 b23c ef64 8f3d 499a d1bd
00000370: 863e ff3d 24f2 bc3c 9d03 f33c 580c da3b
00000380: 6f0f 203e 729d 29bc c230 e0bd b0d3 f73d
00000390: 2bee a63d 4adb d1bc 7dc5 12bc 04bc 4dbd
000003a0: 7fc9 00bd 7182 8fbd 63e7 123d b6d9 993d
000003b0: f2f7 8eba 1243 4bbd 64d1 5abd 85a3 83bd
000003c0: d3c2 ad3d 8646 ad3b b151 02bd 5d86 58bd
000003d0: cd77 ddbb 84c1 31bb c642 2b3d 7691 dc3d
000003e0: 3b46 74bd f98f 75bd 69a3 99bc 86bf 1fbd
000003f0: fb1f 40bc 3418 a03d f72f de3d 821e a53b

conv2.bias f4 [128]
0.028295489 -0.0028883347 0.012781185 -0.0190132 -0.052402817 0.103278995 -0.07951127 -0.031958044
0.02460195 -0.06868591 0.115299635 0.018903213 -0.0013650651 0.08922571 -0.015863966 -0.050596725
0.038475633 -0.07338363 0.036698326 -0.04393985 -0.0076735956 -0.051413197 -0.11682155 0.09554588
0.074067 0.11548794 -0.008420106 -0.09852169 0.06696579 -0.012849885 0.089751676 -0.03696774
0.10234841 -0.09417349 0.09748967 -0.122504875 0.0040613534 0.054583296 0.06962963 -0.02379734
0.10813471 -0.037294984 -0.01015494 -0.08254452 -0.078251496 0.09144381 0.12033628 0.010000089
0.11149822 -0.04566068 -0.007367756 0.0797884 0.038291 -0.089668535 0.10453146 0.017711302
0.08840562 0.021953827 -0.03291636 -0.030588264 -0.030042432 0.044076335 -0.0028437963 -0.10950465
0.12725154 -0.025484135 0.078161746 -0.003784311 -0.022440892 0.07551385 0.07734042 0.028718712
0.12110282 -0.12541308 -0.020933744 -0.011637189 0.102946445 -0.010250177 0.011049529 -0.0107434355
-0.09476155 0.11862907 -0.027467554 0.043730218 -0.02670797 0.096207075 0.109716564 0.0377795
-0.08952815 0.05648435 0.11645035 -0.010543333 0.021678872 -0.07078385 -0.021016879 -0.04680585
0.08357824 0.07531096 0.035935074 -0.01634303 -0.015179135 -0.0029627152 -0.022563199 -0.012457366
-0.024922537 0.026075235 0.091903746 0.051427674 -0.029671185 -0.06533321 0.06504089 -0.036106817
-0.091624804 -0.048146825 -0.015933814 -0.031553682 0.03286965 -0.042738575 0.11046738 -0.012230116
0.034777183 -0.023874886 0.094998084 -0.06507622 -0.11904478 0.0011845481 0.077355124 -0.084516965
00000000: f1cb e73c 374a 3dbb 2d68 513c 92c1 9bbc
00000010: 56a4 56bd f083 d33d ced6 a2bd 70e6 02bd
00000020: 078a c93c 33ab 8cbd 3722 ec3d e9da 9a3c
00000030: fceb b2ba f8bb b63d 26f5 81bc 833e 4fbd
00000040: a098 1d3d 284a 96bd fc50 163d 46fa 33bd
00000050: c972 fbbb a596 52bd 2340 efbd 8fad c33d
00000060: 70b0 973d f184 ec3d 7cf4 09bc bdc5 c9bd
00000070: 5c25 893d 5388 52bc bacf b73d 7c6b 17bd
00000080: 0b9c d13d 08de c0bd aaa8 c73d d6e3 fabd
00000090: 1a15 853b bc92 5f3d fb99 8e3d a4f2 c2bc
000000a0: bb75 dd3d a0c2 18bd e860 26bc 1a0d a9bd
000000b0: 5242 a0bd e446 bb3d de72 f63d 6ad7 233c
000000c0: 2e59 e43d b106 3bbd 386d f1bb 1a68 a33d
000000d0: 06d7 1c3d 23a4 b7bd 9714 d63d 4b17 913c
000000e0: 010e b53d 83d8 b33c 4ed3 06bd 3d94 fabc
000000f0: 8c1b f6bc 6389 343d fc5e 3abb f943 e0bd
00000100: 3a4e 023e 1bc4 d0bc 4413 a03d 3402 78bb
00000110: f6d5 b7bc 01a7 9a3d a764 9e3d 8143 eb3c
00000120: c104 f83d 496c 00be 3e7d abbc e9a9 3ebc
00000130: 96d5 d23d 5cf0 27bc 1509 353c 3c05 30bc
00000140: 5812 c2bd ccf3 f23d a303 e1bc 751e 333d
00000150: acca dabc 3708 c53d 14b3 e03d adbe 1a3d
00000160: 895a b7bd 225c 673d 857d ee3d f2bd 2cbc
00000170: e497 b13c 20f7 90bd 972b acbc 7eb7 3fbd
00000180: 112b ab3d a23c 9a3d a830 133d d1e1 85bc
00000190: e8b1 78bc 1d2a 42bb 75d6 b8bc fb19 4cbc
000001a0: 592a ccbc bb9b d53c 0838 bc3d d3a5 523d
000001b0: fc10 f3bc 6bcd 85bd 2834 853d bee4 13bd
000001c0: c9a5 bbbd 9b35 45bd a187 82bc 6f3e 01bd
000001d0: 53a2 063d a50e 2fbd b93c e23d d360 48bc
000001e0: 8572 0e3d 4495 c3bc 5b8e c23d ae46 85bd
000001f0: c0cd f3bd d742 9b3a 5d6c 9e3d 3b17 adbd

conv3.weight f4 [64, 128, 1]
0.02911134 -0.0043324335 0.0060117478 -0.0016340213 -0.02125258 -0.06353148 0.029272433 0.025944859
-0.06799376 -0.07961563 -0.018933367 0.0014329657 -0.0016890108 -0.05205446 -0.0094618285 0.047258187
-0.026566144 -0.07706386 -0.0011771298 0.04381958 -0.07658931 0.07433595 0.0059427777 0.0025773386
-0.08343387 -0.003480575 -0.08767366 -0.06443022 -0.046526447 0.03186768 -0.016820904 -0.07890356
0.054160886 -0.018704029 0.08646278 0.02134945 -0.019289559 -0.0010218468 0.0088988235 0.00031722648
-0.011262439 -0.08900807 -0.03483602 0.061269857 0.023142666 -0.07137761 -0.052668124 0.053840235
0.03833041 -0.092154965 0.075343415 0.025365014 0.06683599 -0.085664995 0.04707891 -0.037075628
0.06552055 -0.08143166 0.01002055 0.02616168 -0.016354388 -0.099391535 0.0090355715 -0.085609734
0.064533964 -0.016563198 0.07613811 -0.01532939 -0.059275184 0.0030084266 0.055722598 0.0751705
-0.012718381 -0.026633635 0.047461193 0.008096586 -0.096141756 0.05266207 0.017499208 -0.05348563
-0.005883491 0.02223876 -0.00603248 0.007757852 -0.016164422 -0.057464883 -0.057339758 -0.054393016
0.021022528 0.083494134 -0.033986427 0.052700885 -0.07227811 0.032948215 0.014508399 -0.05424666
0.042550296 -0.025486462 0.064275846 -0.042837534 0.08363446 0.0818187 -0.023823997 0.004579841
0.010999104 0.053488422 0.025775794 -0.020240225 0.054470785 0.012121535 0.06497733 0.058334157
-0.04233463 -0.09028245 0.015982263 0.060411196 0.051377993 0.09571879 0.010348088 -0.016468527
-0.04693764 -0.01573939 -0.040942427 0.012757827 0.07344237 -0.0032887766 -0.05311597 0.06944335
-0.0024142037 0.0052812938 -0.011687975 -0.009120483 -0.014018208 -7.37171e-05 0.014027549 -0.0003758645
-0.0028426114 0.0022431277 0.0052432492 0.0061776624 0.0077328524 -0.014347043 0.0017576995 0.005219604
-0.009393005 -0.0176919 0.002354468 -0.012025163 0.004153259 -0.0145746535 0.01389955 -0.0019254857
0.0068684723 -0.014548547 -0.0025791565 -0.0018079254 0.008805323 0.014898229 -0.0039713723 0.0037799152
-0.014702942 -0.0003771093 -0.008888908 0.005776124 0.007870437 0.00023930626 -0.011450061 0.003795077
0.010813443 0.009088039 0.011213233 0.014047925 -0.0061045433 -0.010237502 0.015415983 -0.014247458
-0.0073327613 0.0015006899 -0.017560791 -0.0071564633 0.010900147 -0.017761426 0.014565989 0.0049790903
-0.016742397 -0.011998784 -0.006912047 -0.008217118 -0.015252261 -0.007496381 -0.00094332953 0.003442952
0.0029015285 -0.000349354 -0.008754162 0.013953953 -0.014170235 0.002267776 -0.014618153 -0.0136569915
0.005585128 0.011478855 -0.0061127194 -0.017191194 0.00623427 0.0011221911 -0.010100479 0.0088873515
0.016256386 -0.0055816444 -0.0011847924 -0.014069656 0.009368579 -0.017919177 0.016810646 -0.015928173
0.004553948 0.00769562 -0.004255802 0.0021949518 -0.012264891 0.011041815 -0.0050127385 0.017819285
0.012311521 0.005077329 -0.011730174 0.011430742 0.015158496 0.0020120204 0.016630555 -0.0030833564
-0.0077824476 -0.015230522 -0.015489693 -0.0015207457 0.008869015 -0.0033843247 0.0140317995 -0.0026729666
0.014041055 -0.004167251 0.013804555 -0.0076190364 -0.006613771 -0.0149909165 0.0027569747 0.00578699
-0.015904728 0.004750832 0.008418974 0.0011701041 0.0036696892 -0.009880373 0.016603388 -0.0056576263
00000000: e87a ee3c 16f7 8dbb 32fe c43b a82c d6ba
00000010: e419 aebc cb1c 82bd becc ef3c 508a d43c
00000020: 5040 8bbd 850d a3bd 261a 9bbc 5ad2 bb3a
00000030: cc61 ddba 0f37 55bd c905 1bbc cd91 413d
00000040: 3ea1 d9bc a8d3 9dbd ec49 9aba 297c 333d
00000050: dbda 9cbd 723d 983d a2bb c23b 91e8 283b
00000060: 60df aabd 5c1a 64bb 3f8e b3bd fef3 83bd
00000070: 8492 3ebd af87 023d fecb 89bc 3198 a1bd
00000080: ced7 5d3d 3139 99bc 6613 b13d 0be5 ae3c
00000090: 2305 9ebc 7def 85ba 5fcc 113c 6b51 a639
000000a0: 1886 38bc dd49 b6bd 37b0 0ebd 1af6 7a3d
000000b0: b095 bd3c 6d2e 92bd 88ba 57bd 9487 5c3d
000000c0: 5900 1d3d bebb bcbd a64d 9a3d 4aca cf3c
000000d0: 4fe1 883d 2171 afbd d1d5 403d 9ddc 17bd
000000e0: a32f 863d a4c5 a6bd 3c2d 243c 0551 d63c
000000f0: a3f9 85bc ca8d cbbd ef09 143c 2854 afbd
00000100: 622a 843d 8baf 87bc 4cee 9b3d 1f28 7bbc
00000110: 89ca 72bd 0629 453b 613d 643d fef2 993d
00000120: c260 50bc c82e dabc ab66 423d 8ba7 043c
00000130: f8e5 c4bd 2fb4 573d 805a 8f3c bf13 5bbd
00000140: 4dca c0bb 0f2e b63c 1cac c5bb 9435 fe3b
00000150: 406b 84bc 4c60 6bbd 18dd 6abd 36cb 5ebd
00000160: 7037 ac3c f9fe aa3d 5a35 0bbd e2dc 573d
00000170: 8c06 94bd b5f4 063d a3b4 6d3c bf31 5ebd
00000180: 3849 2e3d fcc8 d0bc 0ea3 833d 6976 2fbd
00000190: 8b48 ab3d 9090 a73d 8b2a c3bc 7e12 963b
000001a0: 9635 343c ad16 5b3d c227 d33c d4ce a5bc
000001b0: c21c 5f3d 6799 463c d612 853d ccef 6e3d
000001c0: 1467 2dbd 01e6 b8bd 3ced 823c bb71 773d
000001d0: bb71 523d 3708 c43d 078b 293c 01e9 86bc
000001e0: af41 40bd e5ef 80bc 3fb3 27bd 3406 513c
000001f0: f468 963d 8488 57bb 2290 59bd 5138 8e3d
00000200: 9e37 1ebb b40e ad3b ec7e 3fbc 146e 15bc
00000210: a0ac 65bc 9198 9ab8 ced3 653c ae0f c5b9
00000220: 1b4b 3abb 7001 133b 90cf ab3b fd6d ca3b
00000230: de63 fd3b dc0f 6bbc 9c62 e63a 3609 ab3b
00000240: 1ee5 19bc 9aee 90bc 6b4d 1a3b 3005 45bc
00000250: 1018 883b 87ca 6ebc f0ba 633c 9460 fcba
00000260: ec10 e13b 075d 6ebc 1107 29bb e9f7 ecba
00000270: 3444 103c b417 743c 4922 82bb 74b8 773b
00000280: 9ce4 70bc c1b6 c5b9 c8a2 11bc a445 bd3b
00000290: 01f3 003c 49ee 7a39 0999 3bbc d4b6 783b
000002a0: de2a 313c 00e6 143c b5b7 373c 4529 663c
000002b0: 9f08 c8bb 32bb 27bc 5293 7c3c 2c6e 69bc
000002c0: a947 f0bb ccb2 c43a a6db 8fbc c480 eabb
000002d0: 8896 323c 6980 91bc 30a6 6e3c a327 a33b
000002e0: 5a27 89bc 8c96 44bc 747e e2bb 17a1 06bc
000002f0: 9fe4 79bc 34a4 f5bb c649 77ba 26a3 613b
00000300: 9227 3e3b 8029 b7b9 9e6d 0fbc 1f9f 643c
00000310: 462a 68bc f89e 143b fa80 6fbc 93c1 5fbc
00000320: 7303 b73b cf11 3c3c 354d c8bb 8cd4 8cbc
00000330: d948 cc3b 7c16 933a 7b7c 25bc 419c 113c
00000340: 1d2c 853c 3ae6 b6bb 094b 9bba 6a84 66bc
00000350: ab7e 193c 3dcb 92bc 7bb6 893c cd7b 82bc
00000360: 4939 953b 8a2b fc3b 4174 8bbb 2ed9 0f3b
00000370: aef2 48bc bbe8 343c e641 a4bb c0f9 913c
00000380: 43b6 493c b95f a63b ea2f 40bc 0248 3b3c
00000390: 575b 783c 1adc 033b cd3c 883c 2312 4abb
000003a0: e703 ffbb 7089 79bc 7bc8 7dbc c253 c7ba
000003b0: 584f 113c 8ccb 5dbb a2e5 653c f02c 2fbb
000003c0: 740c 663c 6f8d 88bb 802c 623c 1ca9 f9bb
000003d0: 55b8 d8bb 769c 75bc 5cae 343b caa0 bd3b
000003e0: a24a 82bc deac 9b3b bcef 093c 2e5e 993a
000003f0: 2b7f 703b 4ae1 21bc d403 883c 9c63 b9bb

conv3.bias f4 [64]
0.0120562855 -0.008815102 0.060520045 -0.020552594 0.06893 -0.01335977 -0.06662203 0.07114895
0.003926146 0.04878599 -0.049955703 -0.04076681 -0.0096476795 0.0017715993 0.003209116 -0.020787556
0.06928414 -0.016540028 0.022841197 0.010632154 -0.012396757 -0.009428164 0.046795096 0.011366777
-0.025433924 0.084194526 -0.014739362 0.0004969437 -0.013893007 -0.014440934 0.024816213 -0.009342227
0.00192117 0.0074683484 -0.035065018 -0.020168861 -0.03976646 -0.078337416 -0.042918846 0.0643747
0.06528811 0.054762907 0.043989908 0.025282526 -0.052848846 0.062399216 -0.0018679469 -0.015409039
-0.07951619 0.08041719 0.088154756 0.00043121484 -0.026730089 -0.02817697 -0.07387868 0.0017714079
0.012090186 -0.065090515 -0.026864687 0.029351195 0.034437794 0.05624882 -0.03080536 -0.03128301
00000000: ba87 453c 386d 10bc dee3 773d ea5d a8bc
00000010: 2c2b 8d3d f0e2 5abc 2271 88bd 8ab6 913d
00000020: e6a6 803b d1d3 473d 5a9e 4cbd 19fb 26bd
00000030: 4d11 1ebc 0235 e83a 0850 523b aa4a aabc
00000040: d8e4 8d3d f47e 87bc 761d bb3c 7c32 2e3c
00000050: c41b 4bbc 9678 1abc 37ac 3f3d b83b 3a3c
00000060: ce5a d0bc 2e6e ac3d 5d7d 71bc 5445 023a
00000070: 7f9f 63bc ab99 6cbc 5f4b cb3c 2410 19bc
00000080: c5cf fb3a 0cb9 f43b 56a0 0fbd 2b39 a5bc
00000090: 28e2 22bd 5e6f a0bd accb 2fbd e2d6 833d
000000a0: c6b5 853d 124f 603d c32e 343d 4d1d cf3c
000000b0: 0878 58bd 5296 7f3d e6d5 f4ba 3276 7cbc
000000c0: 62d9 a2bd c5b1 a43d 7b8a b43d ad14 e239
000000d0: 0ff9 dabc 64d3 e6bc b54d 97bd 962e e83a
000000e0: ea15 463c 2d4e 85bd 5513 dcbc eb71 f03c
000000f0: a50e 0d3d 2a65 663d 865b fcbc 9d22 00bd

conv4.weight f4 [1, 64, 1]
0.0010989027 0.010923076 -0.034723777 0.07710808 -0.10112744 0.025601476 -0.096183464 0.021765
0.091711 0.11266791 -0.03095892 0.07210695 0.019148026 0.015269476 0.016830377 0.07730197
0.054918025 0.00517193 0.18886632 -0.03237026 0.0009935683 -0.0050532683 0.07292078 0.07078863
-0.07830021 0.112700984 -0.018544164 0.010905654 -0.009091645 0.0004620966 -0.0009738073 -0.040540017
0.0049182144 -0.008155176 -0.08945732 -0.020040173 -0.18947396 -0.042545017 -0.093200095 0.010805392
-0.037179403 0.0848952 0.03177764 -0.045236837 0.01895174 0.108287685 -0.1375639 0.002624378
-0.022017684 -0.025334485 -0.099243216 0.062852 0.0054187574 -0.044392236 -0.030974858 -0.09330283
0.130272 0.005422269 0.05374124 0.036026556 0.06789304 0.036906544 0.017194962 0.06349139
00000000: 0e09 903a b4f6 323c 853a 0ebd d7ea 9d3d
00000010: e71b cfbd 30ba d13c d6fb c4bd 834c b23c
00000020: fad2 bb3d 6fbe e63d 909d fdbc cfac 933d
00000030: 52dc 9c3c d32c 7a3c dcdf 893c 7f50 9e3d
00000040: b9f1 603d 4b79 a93b 2c66 413e ae96 04bd
00000050: 9f3a 823a e395 a5bb 7d57 953d a1f9 903d
00000060: dc5b a0bd c6cf e63d eee9 97bc a1ad 323c
00000070: 1ff5 14bc 8e45 f239 1a47 7fba 4a0d 26bd
00000080: f928 a13b 4a9d 05bc 6635 b7bd 4a2b a4bc
00000090: 7605 42be af43 2ebd b1df bebd 1909 313c
000000a0: 6e49 18bd 89dd ad3d 4529 023d 434a 39bd
000000b0: ae40 9b3c efc5 dd3d 8ddd 0cbe c2fd 2b3b
000000c0: 6e5e b4bc 448a cfbc 0740 cbbd 8db8 803d
000000d0: d58f b13b a2d4 35bd fcbe fdbc 8e15 bfbd
000000e0: 0666 053e 4aad b13b c61f 5c3d 9590 133d
000000f0: 820b 8b3d 512b 173d 73dc 8c3c c607 823d

conv1.weight f4 [64, 5, 1]
0.07507571 0.22190067 -0.37411556 0.1489077 0.066010274 -0.19655006 0.19953568 -0.06888633
0.35058686 -0.042070184 -0.22338215 -0.12410808 -0.09153125 0.08952409 -0.041466802 -0.32403684
-0.438706 -0.13041691 -0.13987966 -0.048401438 0.20019418 0.21206853 -0.00059174234 0.10218224
-0.037397377 0.09815871 0.35028565 0.16084854 -0.044488918 0.34398875 0.15411787 0.06761423
0.14722365 -0.2009031 0.31935707 -0.094792254 -0.25314364 0.09456701 0.1549525 -0.05355554
-0.038883105 0.29570886 0.2173109 -0.09834132 0.013068306 0.0009831202 -0.035487805 0.06359086
-0.06660916 0.012950858 -0.44409198 -0.3458182 0.22439584 0.30522653 0.30278587 -0.010739019
-0.116686165 0.34382626 -0.24355431 -0.27268237 0.13380437 -0.16589427 -0.18358265 -0.24270825
0.022913571 -0.089206286 -0.2672381 -0.22068585 0.011690918 0.2518588 0.2292315 0.17457983
0.046784118 0.0691091 -0.016575785 0.21334015 -0.18057172 -0.33793417 0.16785523 -0.2471655
0.26390502 -0.4243107 -0.29238772 -0.014595453 0.2476242 0.38882184 0.2479153 -0.1440346
0.15834822 0.40715036 -0.09255202 0.2767927 0.15641901 -0.19665788 0.31509984 -0.05938149
0.2928045 -0.021281924 0.10911336 0.40017456 -0.31056193 -0.39762565 -0.04944189 0.091467164
0.39539966 0.17957264 -0.31450695 -0.26317927 -0.23158212 0.0067556268 -0.2603679 0.43023136
-0.32365122 -0.23561242 0.07280775 0.24865097 -0.21956523 0.068938665 -0.28428704 0.084707096
0.04028468 0.032062754 0.15954731 -0.21653888 0.09581814 0.33874452 -0.34393707 0.20886745
-0.20234926 0.013822886 -0.30625433 -0.28409025 -0.03127 0.20038813 0.2859353 0.3766356
0.4169275 0.17095281 0.10897024 -0.0024968027 -0.371252 -0.3873634 0.27759865 -0.19965644
-0.15574954 0.0058359373 -0.03913788 0.104461 -0.06891526 0.391746 -0.38147336 -0.21606968
0.21650364 0.3545683 -0.03236447 0.037279483 0.28774843 0.29533198 -0.2051806 0.31175342
-0.2349882 0.1764728 0.36399612 0.13195203 -0.12877885 0.019759396 -0.054982062 0.07738362
-0.048324417 0.09627772 -0.18855472 -0.23838724 -0.1983965 0.23118393 -0.40519252 0.089916475
-0.10044105 -0.04856695 -0.010538942 -0.110977076 -0.32843816 0.13717094 -0.16198127 0.34076166
0.028165314 -0.08945461 -0.12710989 0.11641571 0.30135214 -0.06798629 -0.22626938 0.3892003
0.014331195 -0.081439294 0.0054196417 0.16923882 0.38013092 -0.056867905 -0.032827623 0.22372076
-0.42521492 -0.35380343 0.24008706 -0.17870834 -0.058145847 -0.35803053 -0.32619628 -0.1858776
0.3047494 0.23024225 -0.009871312 0.031933427 -0.057502273 -0.057444803 0.34050936 -0.0141578745
-0.07556039 0.008291826 0.08143899 0.03636897 0.26894033 0.047441937 -0.1360094 -0.22124408
0.20103696 0.012529354 0.16633388 0.15872446 -0.04112279 -0.08083432 -0.052714963 -0.007675859
-0.00493497 -0.065047376 0.060797233 0.18760389 0.30956784 0.13313557 -0.04181415 -0.024690172
0.415241 -0.16391197 0.09422441 -0.34630296 0.45194313 0.14650826 0.077990904 -0.09629403
0.12744653 0.1328621 -0.37313035 -0.30602053 0.16584086 -0.09081939 -0.0068860506 0.3619213
00000000: 4bc1 993d ee39 633e 138c bfbe 437b 183e
00000010: 6530 873d 6b44 49be 1553 4c3e 4714 8dbd
00000020: 1f80 b33e c951 2cbd 4abe 64be 612c febd
00000030: bc74 bbbd 6858 b73d 18d9 29bd 28e8 a5be
00000040: 139e e0be 038c 05be 9d3c 0fbe 9640 46bd
00000050: b4ff 4c3e 7e28 593e 281f 1bba ec44 d13d
00000060: fe2d 19bd 6f07 c93d a458 b33e 7bb5 243e
00000070: 033a 36bd 4b1f b03e 13d1 1d3e 5479 8a3d
00000080: ccc1 163e 8bb9 4dbe c582 a33e 7122 c2bd
00000090: 0b9c 81be 59ac c13d deab 1e3e 0e5d 5bbd
000000a0: e443 1fbd 2767 973e c086 5e3e 2d67 c9bd
000000b0: 731c 563c 0adc 803a a95b 11bd ed3b 823d
000000c0: 626a 88bd d62f 543c 0660 e3be 150f b1be
000000d0: 06c8 653e a746 9c3e c006 9b3e b6f2 2fbc
000000e0: 28f9 eebd ff09 b03e 4d66 79be 069d 8bbe
000000f0: 0304 093e 30e0 29be 17fd 3bbe 8388 78be
00000100: 3eb5 bb3c c9b1 b6bd 6fd3 88be 79fb 61be
00000110: 448b 3f3c a3f3 803e aabb 6a3e 0ec5 323e
00000120: b4a0 3f3d 1289 8d3d f1c9 87bc d775 5a3e
00000130: cbe7 38be b505 adbe 3ee2 2b3e f418 7dbe
00000140: 8f1e 873e 413f d9be d8b3 95be c421 6fbc
00000150: 3391 7d3e a813 c73e 82dd 7d3e ce7d 13be
00000160: 0926 223e 0376 d03e ea8b bdbd c6b7 8d3e
00000170: 4e2c 203e af60 49be c454 a13e 013a 73bd
00000180: 79ea 953e 6e57 aebc d376 df3d aee3 cc3e
00000190: f901 9fbe 9795 cbbe 9483 4abd 2353 bb3d
000001a0: d371 ca3e e4e1 373e 0e07 a1be 6fbf 86be
000001b0: dd23 6dbe 4e5e dd3b f14e 85be 4947 dc3e
000001c0: 9db5 a5be 6244 71be 3b1c 953d 5c9e 7e3e
000001d0: b5d5 60be b72f 8d3d 128e 91be ea7a ad3d
000001e0: 8c01 253d 3c54 033d 5f60 233e 5ebc 5dbe
000001f0: 4d3c c43d ec6f ad3e 8518 b0be 59e1 553e
00000200: a534 4fbe 6379 623c 5ecd 9cbe 4774 91be
00000210: f914 00bd 8c32 4d3e 1d66 923e 62d6 c03e
00000220: 8577 d53e 410e 2f3e ca2b df3d 66a1 23bb
00000230: be14 bebe 7f54 c6be 6921 8e3e bd72 4cbe
00000240: cf7c 1fbe 643b bf3b 0b4f 20bd a6ef d53d
00000250: 7223 8dbd ef92 c83e 7a50 c3be 5f41 5dbe
00000260: 21b3 5d3e fa89 b53e 9b90 04bd 5fb2 183d
00000270: c353 933e c135 973e dd1a 52be 259e 9f3e
00000280: bfa0 70be 49b5 343e b35d ba3e 6f1e 073e
00000290: 9ade 03be 75de a13c df34 61bd 4e7b 9e3d
000002a0: d3ef 45bd 412d c53d 7d14 41be c91b 74be
000002b0: 7428 4bbe 7bbb 6c3e 6575 cfbe 2126 b83d
000002c0: 0ab4 cdbd 23ee 46bd 87ab 2cbc f347 e3bd
000002d0: 0c29 a8be 8a76 0c3e 6bde 25be 5078 ae3e
000002e0: f2ba e63c fb33 b7bd 1829 02be 5c6b ee3d
000002f0: d44a 9a3e 653c 8bbd 29b3 67be 4345 c73e
00000300: 63cd 6a3c a5c9 a6bd 4097 b13b f14c 2d3e
00000310: 85a0 c23e 52ee 68bd 4276 06bd 0e17 653e
00000320: c5b5 d9be b925 b5be 62d9 753e 52ff 36be
00000330: 572a 6ebd c74f b7be 3303 a7be b356 3ebe
00000340: 1d08 9c3e a0c4 6b3e 49bb 21bc a0cc 023d
00000350: 8187 6bbd 3e4b 6bbd 3e57 ae3e 6ef6 67bc
00000360: 68bf 9abd 70da 073c 7cc9 a63d a1f7 143d
00000370: 8cb2 893e 7a52 423d 0c46 0bbe cf8d 62be
00000380: a2dc 4d3e eb47 4d3c 6e53 2a3e aa88 223e
00000390: 5f70 28bd 778c a5bd a5eb 57bd c685 fbbb
000003a0: 87b5 a1bb 8f37 85bd 8506 793d 3c1b 403e
000003b0: ad7f 9e3e b154 083e 5045 2bbd 0b43 cabc
000003c0: 789a d43e 8ad8 27be baf8 c03d 9f4e b1be
000003d0: 1765 e73e 4306 163e b2b9 9f3d ce35 c5bd
000003e0: 5881 023e 010d 083e f10a bfbe b9ae 9cbe
000003f0: 30d2 293e 84ff b9bd 61a4 e1bb c04d b93e

conv1.bias f4 [64]
-0.28420463 0.099139035 0.23427737 -0.14808819 -0.17356093 -0.037146263 0.015743598 -0.15231425
0.3279656 -0.08732314 0.33925867 0.4081035 -0.10307169 0.26103428 0.00048221703 0.24745902
0.28750333 -0.2492284 0.04420203 0.22310501 -0.11350819 -0.15812479 -0.40718314 0.16296744
0.1503487 -0.10330293 0.063435294 -0.15430038 0.35338187 -0.3066582 0.24233788 0.09721431
-0.26481918 -0.124619864 0.40488154 -0.1571969 -0.2357576 0.04967862 -0.32623994 0.055754695
0.25921333 -0.19603272 -0.25150284 -0.121603936 0.22854291 -0.095826894 -0.11643575 -0.0011668289
-0.20289865 -0.22365555 -0.04827635 0.07691633 -0.26973718 0.30360666 -0.34481364 0.45889968
-0.20038424 -0.21906555 -0.024205161 -0.19464497 0.45000127 0.083831035 0.4529189 -0.044651523
00000000: 4583 91be 6809 cb3d 68e6 6f3e 6ea4 17be
00000010: f5b9 31be ae26 18bd b8f8 803c 44f8 1bbe
00000020: 1beb a73e 79d6 b2bd 50b3 ad3e f1f2 d03e
00000030: 4017 d3bd 49a6 853e 13d2 fc39 e665 7d3e
00000040: a333 933e bb35 7fbe 300d 353d a475 643e
00000050: fb76 e8bd 77eb 21be 4f7a d0be f0e0 263e
00000060: 02f5 193e 7d90 d3bd 5dea 813d eb00 1ebe
00000070: 78ee b43e 4e02 9dbe 6c27 783e 4c18 c73d
00000080: 6196 87be b338 ffbd a24c cf3e 39f8 20be
00000090: 716a 71be cf7b 4b3d ec08 a7be 095f 643d
000000a0: 9cb7 843e cdbc 48be fbc4 80be 7c0b f9bd
000000b0: 2707 6a3e e440 c4bd de75 eebd 48f0 98ba
000000c0: aac4 4fbe f605 65be 6cbd 45bd 4f86 9d3d
000000d0: fe1a 8abe 5572 9b3e 6a8b b0be e6f4 ea3e
000000e0: 8731 4dbe b852 60be e749 c6bc 0351 47be
000000f0: 9166 e63e 9baf ab3d fce4 e73e 84e4 36bd

conv2.weight f4 [128, 64, 1]
0.00094115915 0.100878544 0.04861181 -0.047257528 -0.008262861 0.04785952 0.0025988799 -0.016799077
-0.0067268424 0.011234 0.0970835 -0.09484797 0.029973116 0.034173116 0.0025789398 -0.030706165
-0.018929012 -0.033955235 0.03460727 -0.09220407 -0.019077957 -0.014291511 -0.014727772 0.07742783
-0.036777876 0.019998487 0.13652904 -0.014022141 -0.051835924 -0.023637416 -0.024201881 -0.046174634
0.007817723 -0.0008866497 -0.082606025 -0.021401215 -0.021077957 -0.07156602 0.03054442 0.06456503
0.12398417 0.074473746 0.1287706 0.009110186 -0.019627059 -0.011743451 -0.010888248 0.015325642
0.098728776 0.032512784 0.047922026 0.0016835552 -0.019214965 0.08570853 -0.030626958 -0.022311637
-0.041923802 0.0010467876 0.02714543 0.02235555 0.12893185 0.0604845 0.020913132 -0.008137843
-0.0036223053 0.050694115 -0.094242275 -0.08567596 -0.030605204 -0.07007527 0.007742974 -0.03610719
-0.10412843 0.02525137 0.076110564 0.028906971 -0.023698028 -0.047384262 -0.07404759 0.123562634
-0.05368125 0.06989171 -0.08611624 0.012612799 -0.12254006 -0.021414224 -0.03135057 0.11412652
-0.10658297 0.06980967 -0.07214559 0.06785552 0.032853086 0.007541809 0.00037882332 -0.026155647
-0.012113948 0.0049498905 0.007451863 -0.0141149005 -0.010569079 0.042100243 0.092419006 0.11279269
-0.060237184 -0.028680358 -0.020522727 0.02734894 -0.07776385 -0.05376819 -0.026566874 0.001956927
0.016741551 -0.011604888 0.11683755 0.05401704 -0.029168732 0.06506927 0.015723476 0.048420753
0.02535522 -0.032817323 0.01156783 -0.045714922 -0.07772502 0.02723205 0.020315189 0.10605744
0.0010239747 -0.018651113 0.0066031367 -0.011024144 -0.00761561 0.0056431345 0.007586683 0.009455307
-0.0075361575 -0.010287101 -0.008851149 0.01596866 -0.016005626 -0.017799072 7.177069e-05 -0.010596581
-0.0023410462 -0.012186144 -0.018871546 0.0021598854 0.012622052 -0.018813668 -0.012853223 0.015085902
0.0049082404 -0.0067428113 0.01978502 -0.0016611686 -0.00081554655 0.012641267 -0.009078501 0.005388721
0.008494148 0.009126506 -0.021060403 0.003420355 -0.0070501342 -0.00014260039 0.026392449 -0.024841977
-0.011070738 0.012997511 -0.007296825 -0.014171759 -0.0040771817 0.021798894 0.020209866 0.0069863787
0.0071861846 0.01205674 0.026575655 -0.017514642 -0.009066802 -0.012568611 0.011701503 0.008928619
-0.025682129 0.004623139 0.011985655 -0.018749828 -0.026196545 0.00055912405 -0.0064272126 -0.0022067616
0.039885536 -0.066128254 -0.02844723 0.08539742 -0.004050507 0.0058528665 -0.08039613 -0.084890425
0.028557979 -0.019580062 -0.027736172 0.09367231 -0.01570546 0.0152576715 -0.060786914 -0.04735569
-0.037379522 -0.016388245 -0.042030144 0.04998059 0.015317477 0.02513678 0.06511686 0.011191147
-0.005745987 -0.050049692 -0.09316505 -0.008610329 0.059002396 -0.014015985 -0.010126937 -0.13437736
-0.04199077 0.0118749915 0.10306172 -0.022801088 0.07802217 0.04871441 -0.06650485 0.0221942
-0.061950684 -0.016232796 -0.018911831 -3.0004208e-05 -0.10428123 -0.02691077 0.0046942094 -0.14216803
0.02773265 -0.0026903946 0.0039359843 -0.15702905 0.0607273 -0.09239806 0.059171412 0.017643882
0.06897819 -0.023055026 -0.08746639 0.039876528 -0.02324229 0.022029463 -0.0155633455 0.02854856
00000000: 1fb8 763a 6999 ce3d 2d1d 473d 1c91 41bd
00000010: f360 07bc 5808 443d f851 2a3b 389e 89bc
00000020: d86c dcbb d00e 383c b7d3 c63d a73f c2bd
00000030: 2e8a f53c 1cf9 0b3d 6e03 293b 7f8b fbbc
00000040: 0411 9bbc a514 0bbd 5ac0 0d3d 7dd5 bcbd
00000050: 6049 9cbc f126 6abc c14c 71bc 7b92 9e3d
00000060: 66a4 16bd ded3 a33c 45ce 0b3e 1fbd 65bc
00000070: e851 54bd 41a3 c1bc 0643 c6bc 9d21 3dbd
00000080: e815 003c 0e6e 68ba 592d a9bd 9a51 afbc
00000090: aeab acbc 3591 92bd 4b38 fa3c ac3a 843d
000000a0: 6aeb fd3d b185 983d 71dc 033e e442 153c
000000b0: edc8 a0bc 9a67 40bc 9f64 32bc 6718 7b3c
000000c0: 5032 ca3d 202c 053d e349 443d bdaa dc3a
000000d0: b468 9dbc f487 af3d 63e5 fabc e5c6 b6bc
000000e0: 4bb8 2bbd 5d34 893a 1860 de3c fd22 b73c
000000f0: b606 043e 98be 773d 0452 ab3c 9654 05bc
00000100: 3364 6dbb a2a4 4f3d 1802 c1bd e176 afbd
00000110: c4b7 fabc a083 8fbd c6b8 fd3b 22e5 13bd
00000120: 4941 d5bd f6db ce3c dbdf 9b3d 50ce ec3c
00000130: 5e22 c2bc 0016 42bd 43a6 97bd 680e fd3d
00000140: dfe0 5bbd 6323 8f3d b65d b0bd eaa5 4e3c
00000150: 48f6 fabd e26c afbc 7569 00bd 2abb e93d
00000160: 2c48 dabd 5ff8 8e3d 11c1 93bd d6f7 8a3d
00000170: f590 063d 4821 f73b ce9c c639 5e44 d6bc
00000180: 9579 46bc b132 a23b c22e f43b 2f42 67bc
00000190: ee29 2dbc 4e71 2c3d 2d46 bd3d dbff e63d
000001a0: 44bb 76bd 12f3 eabc 471f a8bc e20a e03c
000001b0: a742 9fbd 093c 5cbd c6a2 d9bc c93f 003b
000001c0: 9425 893c 6e22 3ebc 8748 ef3d f940 5d3d
000001d0: 44f3 eebc 0a43 853d 85ce 803c d754 463d
000001e0: c0b5 cf3c 756b 06bd ff86 3d3c 923f 3bbd
000001f0: 4c2e 9fbd c015 df3c 0a6c a63c a534 d93d
00000200: e436 863a 38ca 98bc 205f d83b 9c9e 34bc
00000210: 5e8c f9bb 0bea b83b b699 f83b 6fea 1a3c
00000220: dff1 f6bb 3b8b 28bc 6904 11bc b5d0 823c
00000230: 3b1e 83bc 5ccf 91bc 9983 9638 489d 2dbc
00000240: 3d6c 19bb 64a8 47bc 8098 9abc dd8c 0d3b
00000250: b9cc 4e3c 1f1f 9abc 5396 52bc dc2a 773c
00000260: 4ed5 a03b cdf2 dcbb 3214 a23c 92bb d9ba
00000270: 67ca 55ba 511d 4f3c febd 14bc de93 b03b
00000280: 0a2b 0b3c 5787 153c de86 acbc 0928 603b
00000290: d004 e7bb 0087 15b9 fa34 d83c 6781 cbbc
000002a0: 0a62 35bc 83f3 543c 341a efbb aa30 68bc
000002b0: e199 85bb 9893 b23c 298f a53c feed e43b
000002c0: 167a eb3b a289 453c 30b5 d93c de7a 8fbc
000002d0: ed8c 14bc 93ec 4dbc a9b7 3f3c 5849 123c
000002e0: 5463 d2bc b37d 973b 7b5f 443c 3d99 99bc
000002f0: 239a d6bc 2e92 123a 5e9b d2bb 519f 10bb
00000300: 045f 233d 406e 87bd 2a0a e9bc d8e4 ae3d
00000310: 1eba 84bb 67c9 bf3b baa6 a4bd 08db adbd
00000320: 6cf2 e93c 5e66 a0bc f836 e3bc 45d7 bf3d
00000330: bda8 80bc 50fb 793c b3fb 78bd 0af8 41bd
00000340: 451b 19bd a440 86bc cd27 2cbd 72b8 4c3d
00000350: 28f6 7a3c a6eb cd3c fd5b 853d 135b 373c
00000360: d548 bcbb e800 4dbd 51cd bebd 5612 0dbc
00000370: 7fac 713d 4da3 65bc 74eb 25bc 389a 09be
00000380: 83fe 2bbd 538f 423c 0612 d33d 59c9 babc
00000390: 16ca 9f3d c388 473d b233 88bd 9cd0 b53c
000003a0: 00c0 7dbd a4fa 84bc fcec 9abc 8cb1 fbb7
000003b0: 6691 d5bd fa73 dcbc e2d1 993b 7f94 11be
000003c0: 952f e33c 5551 30bb 6ef9 803b 39cc 20be
000003d0: 30bd 783d 323b bdbd b95d 723d e789 903c
000003e0: 7044 8d3d e5dd bcbc 9421 b3bd 9255 233d
000003f0: 9d66 bebc 2277 b43c 67fd 7ebc abde e93c

conv2.bias f4 [128]
0.031069318 0.054445613 -0.010352662 0.057119355 0.109528065 0.13945645 0.11792476 0.068851024
-0.06311121 -0.102347255 0.10425968 -0.0712467 0.082302175 0.014019038 -0.03449882 -0.09895518
0.1164748 -0.019493492 -0.026266927 -0.11283602 0.038805414 0.012810069 0.07740502 0.10156092
0.14185266 0.09450271 -0.01840958 -0.008588719 -0.024963496 0.02211934 -0.021712199 0.0004247953
-0.10788789 -0.0040911776 0.08236438 -0.07768551 0.10750897 -0.09854512 -0.047596674 0.10011199
-0.042994976 0.13722737 0.026342995 0.014874287 -0.036914907 0.017514143 0.038843963 -0.041872337
0.0035626693 0.04541014 -0.02118316 -0.04982644 0.027156806 0.0057611368 0.04819013 -0.09377943
-0.024782268 -0.07037936 -0.07017317 0.08353581 0.12125484 -0.07182677 0.0021658828 -0.021445911
0.03133438 0.1372176 -0.004683558 -0.053518582 0.10892409 0.019369526 -0.07682385 -0.04566757
-0.009487857 0.125366 0.12406587 0.11525923 0.008047246 -0.010305618 -0.02280401 -0.018971616
0.07300321 0.119522445 0.12381429 -0.051569384 0.045589693 -0.10358321 0.032316316 0.1271888
-0.040033992 0.1012872 0.07450313 0.08816997 0.01958145 -0.010964847 -0.016255787 0.0005648428
-0.08103064 -0.032395985 0.08120016 0.09895804 0.010728639 0.08766002 -0.020643558 -0.07058117
0.02232761 0.09710526 0.098341025 0.032235753 0.027914613 0.024437997 0.10701016 0.10836817
0.1405268 -0.032203287 -0.07919537 0.13374577 0.08719449 -0.019337907 -0.028168753 0.11298973
-0.018751198 0.06768847 -0.032216754 -0.0718652 -0.015183157 0.13308534 -0.026881047 -0.10919389
00000000: 1585 fe3c 5d02 5f3d 369e 29bc fcf5 693d
00000010: 4050 e03d accd 0e3e 8982 f13d c401 8d3d
00000020: 7340 81bd 709b d1bd 1986 d53d cae9 91bd
00000030: 0b8e a83d 1bb0 653c a24e 0dbd 03a9 cabd
00000040: 578a ee3d d1b0 9fbc bd2d d7bc 9216 e7bd
00000050: 6df2 1e3d 53e1 513c 8686 9e3d 2cff cf3d
00000060: d341 113e a38a c13d b0cf 96bc b3b7 0cbc
00000070: 3f80 ccbc 9e33 b53c c8dd b1bc 0fb7 de39
00000080: 53f4 dcbd 490f 86bb a8ae a83d 9519 9fbd
00000090: aa2d dc3d 06d2 c9bd bbf4 42bd 8407 cd3d
000000a0: 801b 30bd 5585 0c3e 44cd d73c 48b3 733c
000000b0: 1634 17bd d279 8f3c d91a 1f3d 5482 2bbd
000000c0: ac7b 693b fcff 393d 4e88 adbc cf16 4cbd
000000d0: f377 de3c ebc7 bc3b 0463 453d 6e0f c0bd
000000e0: 2f04 cbbc 0e23 90bd f3b6 8fbd d314 ab3d
000000f0: 7554 f83d ea19 93bd 7cf1 0d3b 56af afbc
00000100: 7b58 003d c582 0c3e 8878 99bb 4d36 5bbd
00000110: 9813 df3d d7ac 9e3c d355 9dbd eb0d 3bbd
00000120: f572 1bbc f25f 003e 3f16 fe3d 080d ec3d
00000130: 99d8 033c e5d8 28bc 7acf babc 5d6a 9bbc
00000140: b582 953d 2fc8 f43d 5992 fd3d 6b3a 53bd
00000150: 42bc 3a3d 6f23 d4bd 1d5e 043d c83d 023e
00000160: affa 23bd aa6f cf3d 1995 983d 7592 b43d
00000170: 4769 a03c e7a5 33bc db2a 85bc f511 143a
00000180: 64f3 a5bd a7b1 04bd 454c a63d 83aa ca3d
00000190: 2cc7 2f3c 1987 b33d ae1c a9bc dc8c 90bd
000001a0: 64e8 b63c 1fdf c63d 0567 c93d a309 043d
000001b0: 30ad e43c 3232 c83c 2528 db3d 22f0 dd3d
000001c0: 42e6 0f3e 98e7 03bd 2f31 a2bd a7f4 083e
000001d0: 0693 b23d 886a 9ebc 28c2 e6bc 2967 e73d
000001e0: 1d9c 99bc 41a0 8a3d b7f5 03bd 102e 93bd
000001f0: c7c2 78bc 8647 083e a435 dcbc 0ca1 dfbd
